…
{0: 4.285075580157548, 1: 2.7473382473382473, 2: 1.771275191410719, 3: 2.7556133625410735, 4: 0.9013434841021047, 5: 0.6759243711589482, 6: 0.8796765734265735, 7: 1.2101370851370852, 8: 1.1252935256625294, 9: 0.831694214876033, 10: 1.7148334327340888, 11: 1.78509977827051, 12: 0.44047358515341184, 13: 0.8800996982815165, 14: 0.8103309445204928, 15: 0.9292672791910984, 16: 0.607479174212242, 17: 0.883073008073008, 18: 0.7377932551319648, 19: 0.796225967244244, 20: 0.8443596090112011, 21: 2.5133616383616384}
Training size: 32605 32605
Test size: 4026 4026
Validation size: 3623 3623
num classes: 22
Number of layers in the trained model: 19
_________________________________________________________________
Layer (type)                 Output Shape              Param #   
=================================================================
input_1 (InputLayer)         (None, 224, 224, 3)       0         
_________________________________________________________________
block1_conv1 (Conv2D)        (None, 224, 224, 64)      1792      
_________________________________________________________________
block1_conv2 (Conv2D)        (None, 224, 224, 64)      36928     
_________________________________________________________________
block1_pool (MaxPooling2D)   (None, 112, 112, 64)      0         
_________________________________________________________________
block2_conv1 (Conv2D)        (None, 112, 112, 128)     73856     
_________________________________________________________________
block2_conv2 (Conv2D)        (None, 112, 112, 128)     147584    
_________________________________________________________________
block2_pool (MaxPooling2D)   (None, 56, 56, 128)       0         
_________________________________________________________________
block3_conv1 (Conv2D)        (None, 56, 56, 256)       295168    
_________________________________________________________________
block3_conv2 (Conv2D)        (None, 56, 56, 256)       590080    
_________________________________________________________________
block3_conv3 (Conv2D)        (None, 56, 56, 256)       590080    
_________________________________________________________________
block3_pool (MaxPooling2D)   (None, 28, 28, 256)       0         
_________________________________________________________________
block4_conv1 (Conv2D)        (None, 28, 28, 512)       1180160   
_________________________________________________________________
block4_conv2 (Conv2D)        (None, 28, 28, 512)       2359808   
_________________________________________________________________
block4_conv3 (Conv2D)        (None, 28, 28, 512)       2359808   
_________________________________________________________________
block4_pool (MaxPooling2D)   (None, 14, 14, 512)       0         
_________________________________________________________________
block5_conv1 (Conv2D)        (None, 14, 14, 512)       2359808   
_________________________________________________________________
block5_conv2 (Conv2D)        (None, 14, 14, 512)       2359808   
_________________________________________________________________
block5_conv3 (Conv2D)        (None, 14, 14, 512)       2359808   
_________________________________________________________________
block5_pool (MaxPooling2D)   (None, 7, 7, 512)         0         
_________________________________________________________________
flatten_1 (Flatten)          (None, 25088)             0         
_________________________________________________________________
dense_1 (Dense)              (None, 512)               12845568  
_________________________________________________________________
dropout_1 (Dropout)          (None, 512)               0         
_________________________________________________________________
dense_2 (Dense)              (None, 256)               131328    
_________________________________________________________________
dense_3 (Dense)              (None, 22)                5654      
=================================================================
Total params: 27,697,238
Trainable params: 27,697,238
Non-trainable params: 0
_________________________________________________________________
None
Epoch 1/100

   1/1018 [..............................] - ETA: 1:14:44 - loss: 14.1846 - acc: 0.0312
   2/1018 [..............................] - ETA: 38:38 - loss: 13.3521 - acc: 0.0156  
…
