…
{0: 1.1631892697466468, 1: 0.9933636363636363, 2: 0.9933636363636363, 3: 0.9933636363636363, 4: 0.9933636363636363, 5: 0.9933636363636363, 6: 0.9933636363636363, 7: 0.9933636363636363, 8: 0.9933636363636363, 9: 0.9933636363636363, 10: 0.9933636363636363, 11: 0.9933636363636363, 12: 0.9933636363636363, 13: 0.9933636363636363, 14: 0.9933636363636363, 15: 0.9933636363636363, 16: 0.9933636363636363, 17: 0.9933636363636363, 18: 0.9933636363636363, 19: 0.9933636363636363, 20: 0.9933636363636363, 21: 0.9933636363636363}
Training size: 8850 8850
Test size: 1093 1093
Validation size: 984 984
num classes: 22
Number of layers in the trained model: 19
_________________________________________________________________
Layer (type)                 Output Shape              Param #   
=================================================================
input_1 (InputLayer)         (None, 224, 224, 3)       0         
_________________________________________________________________
block1_conv1 (Conv2D)        (None, 224, 224, 64)      1792      
_________________________________________________________________
block1_conv2 (Conv2D)        (None, 224, 224, 64)      36928     
_________________________________________________________________
block1_pool (MaxPooling2D)   (None, 112, 112, 64)      0         
_________________________________________________________________
block2_conv1 (Conv2D)        (None, 112, 112, 128)     73856     
_________________________________________________________________
block2_conv2 (Conv2D)        (None, 112, 112, 128)     147584    
_________________________________________________________________
block2_pool (MaxPooling2D)   (None, 56, 56, 128)       0         
_________________________________________________________________
block3_conv1 (Conv2D)        (None, 56, 56, 256)       295168    
_________________________________________________________________
block3_conv2 (Conv2D)        (None, 56, 56, 256)       590080    
_________________________________________________________________
block3_conv3 (Conv2D)        (None, 56, 56, 256)       590080    
_________________________________________________________________
block3_pool (MaxPooling2D)   (None, 28, 28, 256)       0         
_________________________________________________________________
block4_conv1 (Conv2D)        (None, 28, 28, 512)       1180160   
_________________________________________________________________
block4_conv2 (Conv2D)        (None, 28, 28, 512)       2359808   
_________________________________________________________________
block4_conv3 (Conv2D)        (None, 28, 28, 512)       2359808   
_________________________________________________________________
block4_pool (MaxPooling2D)   (None, 14, 14, 512)       0         
_________________________________________________________________
block5_conv1 (Conv2D)        (None, 14, 14, 512)       2359808   
_________________________________________________________________
block5_conv2 (Conv2D)        (None, 14, 14, 512)       2359808   
_________________________________________________________________
block5_conv3 (Conv2D)        (None, 14, 14, 512)       2359808   
_________________________________________________________________
block5_pool (MaxPooling2D)   (None, 7, 7, 512)         0         
_________________________________________________________________
flatten_1 (Flatten)          (None, 25088)             0         
_________________________________________________________________
dense_1 (Dense)              (None, 512)               12845568  
_________________________________________________________________
dropout_1 (Dropout)          (None, 512)               0         
_________________________________________________________________
dense_2 (Dense)              (None, 256)               131328    
_________________________________________________________________
dense_3 (Dense)              (None, 22)                5654      
=================================================================
Total params: 27,697,238
Trainable params: 27,697,238
Non-trainable params: 0
_________________________________________________________________
None
Epoch 1/100

  1/276 [..............................] - ETA: 18:35 - loss: 13.8290 - acc: 0.0312
  2/276 [..............................] - ETA: 9:35 - loss: 13.6314 - acc: 0.0469 
…
